image-class/model/imageModel.pt (torch, 252715 bytes, 10 tensors)

weight f4 [6, 3, 5, 5]
-0.06693025 -0.08160482 -0.10712708 -0.0877343 0.048241876 -0.12515359 -0.09560888 -0.09436925
-0.09332195 -0.07575673 -0.2770393 -0.084648 0.10752168 0.11234137 -0.09770432 -0.13572136
0.064619206 0.047697894 0.08288431 -0.001281831 -0.14727817 0.08136715 0.11852344 0.18527405
0.073192455 -0.20587325 -0.1481635 0.022533253 0.06070281 -0.07490144 -0.18593697 -0.15431668
0.137273 0.0861384 -0.028584193 -0.13797684 -0.07286222 0.036972646 0.14634441 -0.09314901
-0.20244388 -0.14230542 0.11534119 0.015974462 -0.1643057 -0.20362464 0.07747892 -0.005013319
0.054167613 -0.21062845 -0.011336321 0.16911517 0.11743815 0.29049686 0.011491871 -0.108244576
0.13293354 0.244101 0.28836268 0.10537559 -0.022051906 0.17889182 0.2804074 0.22807017
0.058368612 -0.039749093 0.1859623 0.37705022 0.2843603 0.03411579 0.088126495 0.23660862
0.1493818 0.061836116 0.034867465 0.14841716 0.19807702 0.35960996 0.2513427 0.14076875
0.10177281 0.24905746 0.20456624 0.094004124 0.14234002 -0.006990905 0.09454001 -0.04893454
-0.091760136 0.14055406 -0.10079563 -0.018051961 -0.076444484 -0.19803855 0.1233644 -0.23760816
-0.06908848 -0.3158838 -0.3859135 0.17570393 -0.19581668 -0.2899941 -0.28125104 -0.3616744
-0.34078175 -0.09964093 -0.19280586 -0.3327319 -0.4051247 -0.2707226 -0.021745762 -0.10778788
-0.24785821 -0.39755055 0.016290875 0.10484385 -0.07143294 -0.101475194 -0.33359617 0.16308719
0.033431824 -0.03723978 -0.27063334 -0.12524314 0.47419497 0.060394134 -0.07030299 -0.018224495
-0.12937093 -0.05039264 0.19714734 -0.03571759 -0.056514867 -0.113791816 -0.093656786 0.08998093
0.117872134 0.05329809 -0.07366427 0.10667565 0.32054284 0.23579988 -0.09036339 -0.2613673
0.40888846 0.30414265 0.116278715 -0.10306606 -0.13819246 0.39786628 0.05817766 -0.2732632
-0.14270452 -0.19226046 -0.13017048 -0.06028711 -0.31292677 -0.3353428 -0.38045174 -0.31251848
-0.07147305 0.012138586 0.115168564 0.01692633 0.007868931 0.14109752 0.26228222 0.31930828
0.21409063 0.09007288 0.16655895 0.22182152 0.21862015 0.14678206 0.22911137 -0.09254981
-0.015212956 -0.15404572 -0.029306524 -0.15710479 -0.10867937 -0.19181693 -0.32261884 -0.21070282
-0.26338792 0.067391776 0.123529844 0.05522037 -0.02750482 -0.029359914 0.10406748 0.2109711
0.20588385 0.18227726 0.09125415 0.05298999 0.076444745 0.040863596 0.12030886 0.046760727
0.01760685 0.13175806 -0.015985236 0.0050393664 0.26592475 -0.057861675 -0.10797836 -0.120078556
-0.03678288 0.05299477 0.13813993 0.025000155 0.0659448 0.050965212 -0.028780166 0.1222153
0.17315345 0.038150914 0.04662344 -0.00034534757 -0.0027475753 -0.044994634 0.07540389 0.008413902
0.013006624 -0.2347806 -0.047467094 -0.048350763 -0.25479636 0.18391916 -0.23879547 0.049294986
0.1956553 -0.45838296 0.01575263 -0.039632928 0.3186122 0.24485038 -0.66113055 -0.17058931
0.1303335 0.37551892 0.15109481 -0.32259408 -0.16811407 0.20368725 -0.3097243 -0.29504687
0.013312946 0.12820502 0.09726154 0.12880918 0.1512253 -0.06702978 0.23663262 -0.090650424
00000000: ba12 89bd 6e20 a7bd 7165 dbbd 0aae b3bd
00000010: 4699 453d 4328 00be 97ce c3bd aa44 c1bd
00000020: 941f bfbd 5826 9bbd 18d8 8dbe ee5b adbd
00000030: 5434 dc3d 3b13 e63d 3419 c8bd 8afa 0abe
00000040: 1357 843d de5e 433d 40bf a93d 1c03 a8ba
00000050: 17d0 16be d2a3 a63d 6bbc f23d 7bb8 3d3e
00000060: ede5 953d 70d0 52be 2cb8 17be a897 b83c
00000070: 82a3 783d ed65 99bd 4366 3ebe 3105 1ebe
00000080: 4b91 0c3e 5469 b03d 6629 eabc cd49 0dbe
00000090: ca38 95bd a170 173d 4fdb 153e e8c4 bebd
000000a0: 734d 4fbe 83b8 11be 0038 ec3d e0dc 823c
000000b0: c13f 28be fa82 50be 45ad 9e3d c546 a4bb
000000c0: dcde 5d3d fcae 57be fabb 39bc 872c 2d3e
000000d0: 6a83 f03d 01bc 943e 6748 3c3c 55af ddbd
000000e0: bb1f 083e 9df5 793e 46a4 933e 28cf d73d
000000f0: 33a6 b4bc 6b2f 373e 8f91 8f3e 3a8b 693e
00000100: ed13 6f3d f2cf 22bd e76c 3e3e ba0c c13e
00000110: ac97 913e 00bd 0b3d aa7b b43d 8849 723e
00000120: 8bf7 183e de47 7d3d 30d1 0e3d abfa 173e
00000130: b4d4 4a3e cc1e b83e feaf 803e af25 103e
00000140: 436e d03d eb08 7f3e d079 513e 3c85 c03d
00000150: 95c1 113e f613 e5bb 319e c13d 966f 48bd
00000160: bdec bbbd 67ed 0f3e f06d cebd b5e1 93bc
00000170: ed8e 9cbd 9eca 4abe 79a6 fc3d 8e4f 73be
00000180: 437e 8dbd 85bb a1be 7496 c5be bbeb 333e
00000190: 2b84 48be 1b7a 94be 2300 90be 632d b9be
000001a0: f27a aebe 8b10 ccbd e66e 45be d65b aabe
000001b0: 816c cfbe 279c 8abe 2b24 b2bc e4bf dcbd
000001c0: 8bce 7dbe bf8b cbbe 7174 853c 5fb8 d63d
000001d0: 6f4b 92bd 3ad2 cfbd 1ecd aabe 5400 273e
000001e0: cfef 083d bd88 18bd 7490 8abe bd3f 00be
000001f0: afc9 f23e d75f 773d 04fb 8fbd 894b 95bc
00000200: d079 04be 8368 4ebd fee0 493e 9c4c 12bd
00000210: 227c 67bd af0b e9bd 21cf bfbd ec47 b83d
00000220: f266 f13d 194f 5a3d 4bdd 96bd c378 da3d
00000230: 311e a43e 8675 713e 7110 b9bd efd1 85be
00000240: d459 d13e 96b8 9b3e 8923 ee3d 4c14 d3bd
00000250: 5382 0dbe 21b5 cb3e b34b 6e3d 27e9 8bbe
00000260: 2221 12be eddf 44be 694b 05be 9eef 76bd
00000270: f037 a0be 0db2 abbe 92ca c2be 6c02 a0be
00000280: 7660 92bd ebe0 463c 7fdd eb3d 16a9 8a3c
00000290: b0ec 003c de7b 103e db49 863e 607c a33e
000002a0: 933a 5b3e 2178 b83d 6e8e 2a3e 2e25 633e
000002b0: f6dd 5f3e 094e 163e 2c9c 6a3e c18a bdbd
000002c0: c33f 79bc 29be 1dbe 3c14 f0bc 14e0 20be
000002d0: 4a93 debd a86b 44be 4c2e a5be 7bc2 57be
000002e0: c8da 86be b304 8a3d 37fd fc3d c12e 623d
000002f0: ca51 e1bc 3484 f0bc 5521 d53d cf08 583e
00000300: 37d3 523e e4a6 3a3e 75e3 ba3d 080c 593d
00000310: 108f 9c3d 9660 273d 7e64 f63d 2d88 3f3d
00000320: 3e3c 903c 96eb 063e 78f3 82bc 4521 a53b
00000330: 4a27 883e 5d00 6dbd c223 ddbd bfeb f5bd
00000340: a5a9 16bd 0b11 593d 8e74 0d3e 20cd cc3c
00000350: 110e 873d e6c0 503d 62c4 ebbc 044c fa3d
00000360: 234f 313e 2244 1c3d 38f8 3e3d c40f b5b9
00000370: aa10 34bb 4b4c 38bd 5b6d 9a3d 76da 093c
00000380: bc19 553c 536a 70be db6c 42bd 730b 46bd
00000390: ab74 82be 4e55 3c3e cd86 74be 8ae9 493d
000003a0: dd59 483e 2cb1 eabe a90b 813c 2356 22bd
000003b0: 2321 a33e 0fba 7a3e da3f 29bf f7ae 2ebe
000003c0: 2576 053e 0444 c03e 99b8 1a3e 0d2b a5be
000003d0: 1826 2cbe 6493 503e 2f94 9ebe 6210 97be
000003e0: 8b1e 5a3c 2d48 033e 0f31 c73d 8ee6 033e
000003f0: ceda 1a3e e946 89bd d24f 723e eea6 b9bd

bias f4 [6]
0.04981803 -0.22022913 -0.3501808 -0.06284946 0.29022947 -0.34325945
00000000: fe0d 4c3d bf83 61be e64a b3be 38b7 80bd
00000010: f598 943e b4bf afbe

weight f4 [16, 6, 5, 5]
0.22825482 0.050573662 0.21017785 0.22522487 0.12044672 -0.00042770617 0.022500802 0.111641906
-0.07348456 -0.119291276 0.042903025 -0.015409064 0.07688744 -0.094229214 -0.20362335 0.007997831
0.052580282 0.016282193 -0.10003143 -0.20278156 0.001654145 0.011271364 0.100169145 -0.15856504
-0.20308384 0.25290108 0.13964458 -0.20079167 -0.24634135 -0.07429864 0.36670426 0.120528966
-0.25391072 -0.24173453 0.031898163 0.26406896 -0.0070156534 -0.078823656 -0.20616873 0.057158828
0.1315169 0.036689907 -0.01772546 -0.1690176 -0.08785188 0.09256265 0.014620511 -0.0864269
-0.14096716 -0.13708475 0.0628421 -0.074409656 0.16686161 0.31350955 0.027219241 -0.09559149
-0.08532929 0.063428976 0.2412443 0.21632653 -0.111880444 -0.2622856 -0.029263059 0.051493455
0.038701624 -0.111222945 -0.111230455 -0.09555508 -0.049897466 0.013191111 -0.108832896 -0.057540156
-0.117507555 -0.05193215 0.005833021 0.056216378 -0.4060121 -0.26341075 -0.005210665 -0.0098224385
0.35669032 -0.1799916 -0.20393915 -0.01237754 0.14306642 0.43030387 -0.23183864 -0.23319052
-0.11714859 0.06625847 0.3134843 -0.16569257 -0.15595093 -0.22651245 0.024644407 0.2779224
0.01431267 -0.085942514 -0.15234432 -0.07441201 0.05449937 -0.036835413 0.022720871 0.06754915
0.06384849 0.08809043 0.0591137 -0.061015792 0.0338997 0.0754455 0.17263868 -0.06801701
-0.13457693 -0.108537085 -0.084348485 0.09194866 -0.013757767 -0.14940782 -0.19129583 -0.20860596
0.13434546 0.022884129 -0.10848347 -0.0718214 -0.14619768 -0.04946134 -0.0061179064 -0.0011036805
0.032736655 0.12176675 0.054259665 -0.09280479 0.08269308 0.16114761 0.15907069 -0.033798754
-0.23657621 -0.049267687 -0.080205254 -0.08405195 -0.10469235 -0.16796869 -0.11371358 -0.047209393
-0.031176362 -0.048065424 -0.05368124 -0.06958918 0.07995204 -0.049747434 -0.06840378 -0.10374426
-0.066834986 -0.019976148 -0.041543294 -0.05959487 -0.046017975 -0.008333826 -0.010294541 0.06716721
-0.06755592 -0.080111 -0.06543661 0.04526424 -0.06387297 -0.04061728 0.052978206 -0.053131796
-0.01202076 -0.0050795865 0.10717939 0.052704506 0.021830805 0.06711363 -0.0054447646 -0.10261633
-0.00914706 0.02463208 -0.07139497 0.03366264 -0.05177367 -0.08075033 -0.10419429 -0.07701424
-0.0232186 0.057741962 0.04023745 -0.025990503 0.031094076 -0.0803369 0.0590875 0.019885762
-0.018419094 0.06531277 0.012895038 -0.030755887 -0.06840663 -0.05763467 -0.06680281 -0.019915555
-0.08747755 -0.0021455013 0.0074936952 -0.045860473 -0.09070647 -0.12523006 -0.08425789 -0.06349923
-0.0726952 -0.009600039 -0.07467052 -0.062347587 0.098566964 0.043967202 -0.08774324 0.18555857
0.1983734 0.20538713 0.18482722 -0.014323728 0.060283512 0.062595375 0.02558958 0.10272167
0.10049936 -0.020411385 -0.1337827 -0.092189796 -0.06290791 0.049081564 -0.087544546 -0.083228245
-0.05225897 -0.08232182 -0.080612175 -0.006254915 -0.09297587 -0.05396093 -0.028665034 -0.06293613
0.025868962 0.013119042 0.065034196 0.043152634 -0.03259303 0.0721496 0.006469602 0.020996004
0.104605235 0.04488311 -0.07009921 0.055820808 0.025280759 0.0058348933 0.00038939374 -0.037841387
00000000: a2bb 693e 5426 4f3d dd38 573e 59a1 663e
00000010: c5ac f63d c03d e0b9 9a53 b83c 83a4 e43d
00000020: 137f 96bd fc4e f4bd 15bb 2f3d 4c76 7cbc
00000030: 2a77 9d3d 3ffb c0bd a482 50be 5609 033c
00000040: 6c5e 573d 3c62 853c 47dd ccbd f8a5 4fbe
00000050: e5cf d83a 87ab 383c 7b25 cd3d e05e 22be
00000060: 36f5 4fbe 407c 813e fdfe 0e3e 559c 4dbe
00000070: e840 7cbe e329 98bd a9c0 bb3e e4d7 f63d
00000080: 9600 82be 4289 77be a6a7 023d 0c34 873e
00000090: 91e3 e5bb 4c6e a1bd e51d 53be 601f 6a3d
000000a0: 5eac 063e 2848 163d fc34 91bc f312 2dbe
000000b0: b0eb b3bd 7d91 bd3d de8a 6f3c 9600 b1bd
000000c0: b259 10be f25f 0cbe 5cb3 803d 1764 98bd
000000d0: c5dd 2a3e 5384 a03e e3fa de3c 79c5 c3bd
000000e0: 1fc1 aebd 0de7 813d bf08 773e b484 5d3e
000000f0: 9321 e5bd 4c4a 86be 15b9 efbc cdea 523d
00000100: 9885 1e3d dbc8 e3bd cbcc e3bd 62b2 c3bd
00000110: 4961 4cbd 881f 583c c8e3 debd 3aaf 6bbd
00000120: cda7 f0bd ceb6 54bd ed22 bf3b 2543 663d
00000130: d1e0 cfbe c6dd 86be 3abe aabb 4bee 20bc
00000140: 1da0 b63e b84f 38be 6dd5 50be 2acb 4abc
00000150: 0180 123e ca50 dc3e 1c67 6dbe 7fc9 6ebe
00000160: 9aeb efbd 85b2 873d 0481 a03e 50ab 29be
00000170: 9ab1 1fbe e1f2 67be 11e3 c93c d84b 8e3e
00000180: b07f 6a3c a102 b0bd 2600 1cbe 5365 98bd
00000190: bb3a 5f3d bbe0 16bd 1f21 ba3c 3557 8a3d
000001a0: ffc2 823d c168 b43d 3521 723d b2eb 79bd
000001b0: 69da 0a3d 2c83 9a3d 32c8 303e 814c 8bbd
000001c0: 89ce 09be b148 debd e6be acbd 944f bc3d
000001d0: 4268 61bc 5dfe 18be 0ee3 43be cd9c 55be
000001e0: db91 093e 7f77 bb3c 952c debd 1917 93bd
000001f0: d8b4 15be f997 4abd b878 c8bb 5fa9 90ba
00000200: df16 063d d960 f93d 623f 5e3d 7010 bebd
00000210: fd5a a93d e103 253e 6de3 223e 9070 0abd
00000220: 0941 72be eacc 49bd a742 a4bd 6e23 acbd
00000230: f168 d6bd fcff 2bbe aae2 e8bd a35e 41bd
00000240: 9265 ffbc 40e0 44bd dce0 5bbd c684 8ebd
00000250: e5bd a33d f7c3 4bbd 4817 8cbd df77 d4bd
00000260: c8e0 88bd 05a5 a3bc 4d29 2abd c019 74bd
00000270: 587d 3cbd 9a8a 08bc 6faa 28bc f68e 893d
00000280: c25a 8abd 3c11 a4bd a103 86bd ff66 393d
00000290: d5cf 82bd 4e5e 26bd adff 583d baa0 59bd
000002a0: b9f2 44bc a972 a6bb de80 db3d aee0 573d
000002b0: 84d6 b23c df72 893d ff69 b2bb 8328 d2bd
000002c0: 8ddd 15bc 37c9 c93c 8737 92bd d6e1 093d
000002d0: a110 54bd 6e60 a5bd d163 d5bd a4b9 9dbd
000002e0: ef34 bebc d682 6c3d 06d0 243d 09ea d4bc
000002f0: 01b9 fe3c ac87 a4bd bc05 723d 77e7 a23c
00000300: a4e3 96bc b4c2 853d b645 533c c5f3 fbbc
00000310: c618 8cbd 5512 6cbd e9cf 88bd f225 a3bc
00000320: 6e27 b3bd 8a9b 0cbb ac8d f53b 31d8 3bbd
00000330: 50c4 b9bd 4f3c 00be 678f acbd e20b 82bd
00000340: 39e1 94bd 7b49 1dbc dcec 98bd 2f60 7fbd
00000350: 7add c93d f416 343d bab2 b3bd 1103 3e3e
00000360: 6622 4b3e 0151 523e 5943 3d3e 12ae 6abc
00000370: d8eb 763d 0132 803d 3da1 d13c bd5f d23d
00000380: 9cd2 cd3d c735 a7bc 55fe 08be 01ce bcbd
00000390: ddd5 80bd c009 493d 8e4a b3bd 9273 aabd
000003a0: 800d 56bd 5898 a8bd ff17 a5bd 08f6 ccbb
000003b0: 226a bebd 2306 5dbd efd2 eabc a8e4 80bd
000003c0: 25eb d33c 40f1 563c a630 853d d1c0 303d
000003d0: 4580 05bd 2bc3 933d f5fe d33b d0ff ab3c
000003e0: 453b d63d 5ad7 373d 2d90 8fbd 5ca4 643d
000003f0: 9819 cf3c a232 bf3b 8b27 cc39 92ff 1abd

bias f4 [16]
-0.19604167 -0.039090905 -0.055749945 0.0016487872 -0.14352316 -0.65534854 0.13245353 0.31989706
0.2361499 0.7109364 -0.39752117 0.0030392911 -0.4423463 0.88141775 -0.34275877 0.029180428
00000000: 26bf 48be c91d 20bd 0e5a 64bd 1e1c d83a
00000010: bcf7 12be ecc4 27bf e6a1 073e 8cc9 a33e
00000020: 48d1 713e eeff 353f e587 cbbe d82e 473b
00000030: 377b e2be 98a4 613f 147e afbe cb0b ef3c

weight f4 [120, 400]
0.0047695083 0.026794543 0.05110281 -0.03727824 -0.029943474 0.034464445 -0.06446144 0.0041090944
0.029170752 0.01708676 0.043198302 0.02964298 0.06525325 0.056930155 0.015494223 -0.024916451
-0.04741591 -0.047984328 0.11410611 0.017977243 -0.0046606557 0.015847465 -0.012638299 0.12865622
0.07103298 0.024159707 -0.036716715 -0.009554588 -0.026029218 -0.064509094 0.06875168 0.06273506
-0.0043030744 0.07018545 0.007470403 0.014240356 -0.017799405 -0.044068836 0.003563188 -0.04314231
-0.01850937 -0.010620831 0.04498124 0.056294173 0.018082097 0.034187157 0.010645718 -0.016150111
0.005584678 -0.01743033 0.005586418 -0.06568975 -0.033231758 -0.026749969 0.034296617 0.019350536
-0.012276627 -0.03603725 -0.017687932 0.005849864 0.013305291 0.0070823818 0.022618415 0.0557796
0.081054166 0.0066933525 -0.051238127 -0.019045288 -0.018305294 0.027939184 -0.041311905 0.00061068387
-0.044473056 0.015437924 -0.004621336 0.06265748 0.0029959902 -0.018247453 -0.0702382 0.018717911
0.0074736495 0.014101914 0.008400429 -0.067591876 -0.06415097 0.072610445 -0.0072888657 -0.033235874
-0.013562744 -0.020490676 0.049523585 0.023870612 0.057798762 0.06623975 0.023206992 -0.016655779
0.011349175 0.052044634 0.10579258 0.101967454 -0.12480882 -0.11257533 -0.08591336 0.030890116
0.07660496 0.0043264837 -0.098510526 -0.0068710116 0.01027095 0.10062974 0.037480798 0.020616649
-0.07233232 0.025362236 0.12362266 0.10155598 0.045897406 0.020387385 0.05521251 0.09372745
0.017612884 0.037824623 0.023891851 0.012382355 0.07751668 -0.093230166 0.0069130515 0.023662627
0.043049283 0.046938356 0.013779051 -0.10241168 -0.048409812 0.025744712 0.06376575 -0.032225475
0.027923495 -0.00034455562 0.05537794 0.021868808 -0.013893265 0.036195718 0.011283799 0.00986711
-0.11655145 -0.06584078 -0.01980849 -0.053570233 -0.11919843 -0.17717537 0.0043544974 -0.024832051
-0.016066028 -0.058317177 -0.11342933 0.05808563 -0.0032173027 -0.058218956 -0.06643865 -0.09571027
0.01886602 0.0023123734 -0.026759764 -0.021895055 -0.039485287 -0.030157348 -0.036446273 -0.014669984
-0.032241903 -0.088905565 -0.046835802 -0.028422391 0.018335434 0.040963292 0.044117853 -0.01630018
0.067604266 0.046966422 0.11223904 0.07863319 -0.0014667516 0.066908106 0.12024749 0.013659757
-0.037341516 -0.020522404 -0.011760453 0.056684323 -0.035072487 -0.046742644 -0.038753077 -0.030919874
0.0077234465 0.0093767615 0.01755666 -0.003082808 -0.023142865 -0.012832354 0.029785695 0.03446416
-0.0093239 -0.02001335 0.008941981 0.01754115 0.03436271 0.050704695 0.0007951857 0.018810594
0.045851033 -0.014621528 0.018100277 0.051112786 -0.035132967 0.032586366 0.019173523 0.040422488
-0.015420586 -0.03971439 0.025785964 0.036798675 -0.03902655 0.02564364 -0.0042969035 0.023665113
0.01975364 -0.024553742 -0.034495886 -0.063817546 -0.026576437 -0.040121958 0.028647408 -0.005587923
-0.041342713 -0.05799167 -0.04282123 -0.06456568 -0.012811886 0.0030275458 0.007339883 -0.045681655
-0.032246962 -0.008578 0.008776881 0.019795116 -0.07723977 -0.037470426 0.05081887 0.042530578
-0.04886344 -0.07369368 0.11549374 0.014518568 -0.060522083 -0.10474688 -0.057184894 0.12249906
00000000: 8949 9c3b 3b80 db3c 2e51 513d 11b1 18bd
00000010: 044c f5bc 972a 0d3d 5c04 84bd 95a5 863b
00000020: 80f7 ee3c 88f9 8b3c b4f0 303d d6d5 f23c
00000030: 7fa3 853d 982f 693d 7bdb 7d3c 961d ccbc
00000040: 2f37 42bd 378b 44bd 77b0 e93d 0345 933c
00000050: 6ab8 98bb 8bd2 813c de10 4fbc 75be 033e
00000060: bd79 913d 94ea c53c 4464 16bd d98a 1cbc
00000070: 3a3b d5bc 581d 84bd aecd 8c3d 3d7b 803d
00000080: ce00 8dbb 64bd 8f3d 48ca f43b 6250 693c
00000090: 0fd0 91bc 8681 34bd 6084 693b feb5 30bd
000000a0: f6a0 97bc fe02 2ebc 403e 383d b894 663d
000000b0: e820 943c d507 0c3d 616b 2e3c 3d4d 84bc
000000c0: adff b63b 0dca 8ebc 450e b73b 5988 86bd
000000d0: 061e 08bd c022 dbbc 9c7a 0c3d 0485 9e3c
000000e0: e823 49bc cc9b 13bd 48e6 90bc 37b0 bf3b
000000f0: 6ffe 593c 5313 e83b 414a b93c 2679 643d
00000100: baff a53d e953 db3b 12df 51bd dd04 9cbc
00000110: fcf4 95bc b7e0 e43c ac36 29bd 4d16 203a
00000120: 6129 36bd 59ef 7c3c 936e 97bb 9152 803d
00000130: 6058 443b af7b 95bc 0cd9 8fbd 4e56 993c
00000140: 84e5 f43b b70b 673c f4a1 093c 9c6d 8abd
00000150: 9561 83bd c9b4 943d 70d7 eebb 5722 08bd
00000160: 4536 5ebc 10dc a7bc 3ed9 4a3d 4d8c c33c
00000170: 65be 6c3d b5a8 873d 971c be3c b371 88bc
00000180: e4f1 393c c12c 553d c8a9 d83d 50d4 d03d
00000190: c49b ffbd e58d e6bd 58f3 afbd 450d fd3c
000001a0: 10e3 9c3d 2dc5 8d3b e3bf c9bd 3926 e1bb
000001b0: 7d47 283c f716 ce3d 7785 193d 3fe4 a83c
000001c0: f822 94bd 77c4 cf3c e12d fd3d 95fc cf3d
000001d0: ebfe 3b3d 7203 a73c 8326 623d 2df4 bf3d
000001e0: e548 903c feed 1a3d d8b8 c33c 5cdf 4a3c
000001f0: 11c1 9e3d 75ef bebd e186 e23b 20d8 c13c
00000200: 7254 303d 6f42 403d 87c1 613c 37bd d1bd
00000210: 5e49 46bd 93e6 d23c 9e97 823d dcfe 03bd
00000220: d0bf e43c 79a5 b4b9 fbd3 623d 3726 b33c
00000230: 94a0 63bc f641 143d afdf 383c a9a9 213c
00000240: 87b2 eebd 88d7 86bd 6a45 a2bc 766c 5bbd
00000250: 4e1e f4bd 766d 35be 2cb0 8e3b 966c cbbc
00000260: e79c 83bc fedd 6ebd a34d e8bd 33eb 6d3d
00000270: 62d9 52bb 0077 6ebd fd10 88bd bf03 c4bd
00000280: e98c 9a3c 308b 173b 4b37 dbbc 425d b3bc
00000290: 53bb 21bd 8b0c f7bc b048 15bd 5f5a 70bc
000002a0: 1610 04bd 1f14 b6bd e6d6 3fbd 13d6 e8bc
000002b0: 3134 963c 20c9 273d ecb4 343d f587 85bc
000002c0: 1b74 8a3d dd5f 403d 95dd e53d 700a a13d
000002d0: 0440 c0ba 1e07 893d 5144 f63d 2ccd 5f3c
000002e0: 6bf3 18bd 9a1e a8bc eaae 40bc d22d 683d
000002f0: 2ba8 0fbd 3775 3fbd 8cbb 1ebd ad4b fdbc
00000300: f714 fd3b fda0 193c fcd2 8f3c f008 4abb
00000310: 1b96 bdbc cb3e 52bc 2101 f43c 4b2a 0d3d
00000320: 45c3 18bc 09f3 a3bc 6381 123c 75b2 8f3c
00000330: eabf 0c3d baaf 4f3d 0274 503a ad18 9a3c
00000340: 4bce 3b3d 228f 6fbc 0847 943c a45b 513d
00000350: 96e7 0fbd 4879 053d cb11 9d3c 0d92 253d
00000360: a0a6 7cbc 8eab 22bd 163d d33c 35ba 163d
00000370: 4eda 1fbd 9c12 d23c 0acd 8cbb 57dd c13c
00000380: 63d2 a13c ee24 c9bc 8f4b 0dbd c6b2 82bd
00000390: d4b6 d9bc ec56 24bd f8ad ea3c e51a b7bb
000003a0: fa56 29bd ac88 6dbd 5065 2fbd 033b 84bd
000003b0: f2e8 51bc ca69 463b 6783 f03b b01c 3bbd
000003c0: 6415 04bd bd8a 0cbc e8cc 0f3c 5e29 a23c
000003d0: e22f 9ebd 977a 19bd 7327 503d 8b34 2e3d
000003e0: 0825 48bd b6ec 96bd fb87 ec3d 4adf 6d3c
000003f0: 01e6 77bd 8885 d6bd b53a 6abd cae0 fa3d

bias f4 [120]
0.078435175 0.07720174 0.0070099486 -0.029952925 0.08498681 0.17173554 0.15884031 0.050435692
-0.024260873 -0.0809355 -0.02193227 -0.0075713824 -0.015106782 0.03340297 -0.052619137 0.31205738
-0.11808431 0.03572953 -0.04783748 0.022006845 0.07367746 0.08561667 0.051909093 -0.16771817
-0.04683972 -0.031396635 0.040549807 -0.004011206 -0.022117887 -0.047925606 0.0876896 0.05299942
-0.14655901 0.013236914 -0.024055298 0.13544703 0.09366917 0.0073127965 0.05397529 0.051176906
0.10382017 0.011542851 -0.006610247 -0.034833826 0.051724765 0.04892679 0.08013717 0.08756712
-0.102059595 0.07821272 0.029543413 -0.13254987 -0.029060101 -0.0692794 -0.05449372 7.0394635e-05
-0.02222602 -0.046566267 0.10014508 0.16668893 0.057093322 -0.11256911 0.0067972913 0.32201496
0.06601082 0.040805034 -0.14716756 0.067679554 -0.003957437 0.026431335 -0.0010305786 0.13562782
0.12671028 0.04862159 0.0053406204 -0.059933074 0.09458018 -0.049690347 0.06455685 0.007580896
0.015190815 0.009014798 0.10095651 0.04417286 0.07449706 0.018585313 -0.07060429 0.047744755
0.04833393 -0.05010573 0.17085515 0.04656592 -0.013433993 0.012747491 0.10439741 -0.16229752
0.021492004 -0.008689094 0.025400175 0.17823099 0.08903937 -0.08541193 0.08896019 0.08650722
0.04621504 -0.0081841 -0.015868092 0.019040447 0.042478368 0.07690243 -0.11343916 -0.0004643121
0.018940832 -0.016989674 0.10895093 0.13167517 0.053607076 0.023114843 0.15066858 -0.15325393
00000000: 9fa2 a03d f21b 9e3d b6b3 e53b d65f f5bc
00000010: 910d ae3d 71db 2f3e 09a7 223e a895 4e3d
00000020: bdbe c6bc 83c1 a5bd 4eab b3bc 5c19 f8bb
00000030: 7082 77bc 8dd1 083d 2a87 57bd fcc5 9f3e
00000040: 30d6 f1bd 2159 123d 3cf1 43bd b347 b43c
00000050: 35e4 963d cb57 af3d a19e 543d 50be 2bbe
00000060: 02db 3fbd c299 00bd 8e17 263d 6f70 83bb
00000070: 9230 b5bc a44d 44bd 9b96 b33d eb15 593d
00000080: 9113 16be a4df 583c 9e0f c5bc a0b2 0a3e
00000090: 9fd5 bf3d 2fa0 ef3b 3215 5d3d e09e 513d
000000a0: ab9f d43d 3a1e 3d3c c59a d8bb eaad 0ebd
000000b0: 59dd 533d 7567 483d f51e a43d 6456 b33d
000000c0: 9f04 d1bd fe2d a03d 0705 f23c 27bb 07be
000000d0: 730f eebc 5ce2 8dbd cf34 5fbd d5a0 9338
000000e0: 5813 b6bc 45bc 3ebd dd18 cd3d 81b0 2a3e
000000f0: b0da 693d a28a e6bd d0bb de3b 25df a43e
00000100: ae30 873d 2e23 273d 18b3 16be 949b 8a3d
00000110: 63ad 81bb 8786 d83c 7b14 87ba 05e2 0a3e
00000120: 57c0 013e 6f27 473d 5f00 af3b 627c 75bd
00000130: 41b3 c13d 1b88 4bbd 6236 843d 2a69 f83b
00000140: e5e2 783c ceb2 133c 49c2 ce3d 9aee 343d
00000150: ea91 983d 3a40 983c fb98 90bd 0190 433d
00000160: cdf9 453d aa3b 4dbd a7f4 2e3e e8bb 3e3d
00000170: 401a 5cbc dada 503c 4fce d53d 5231 26be
00000180: 0010 b03c b45c 0ebc 0714 d03c 2f82 363e
00000190: 465a b63d 73ec aebd c330 b63d b32a b13d
000001a0: fb4b 3d3d 9a16 06bc cdfd 81bc b6fa 9b3c
000001b0: ccfd 2d3d 057f 9d3d ca52 e8bd ea6e f3b9
000001c0: ce29 9b3c ee2d 8bbc aa21 df3d dbd5 063e
000001d0: 1893 5b3d 575b bd3c dd48 1a3e 99ee 1cbe

weight f4 [84, 120]
0.017039156 0.006946137 -0.080747046 0.0028475078 0.045142166 -0.0008407587 0.013804005 -0.044375326
-0.04204883 -0.0044724313 -0.022497203 -0.014246855 0.06490236 -0.008120462 0.032737937 -0.048312902
0.05794593 0.07494957 0.048214104 -0.013420453 -0.03292816 -0.00803906 -0.036834754 0.03186517
-0.063272804 0.077910855 0.06053231 -0.06604942 0.07837991 0.08365039 0.019161938 0.07179263
0.033849217 -0.083131835 0.0062621864 0.08631904 -0.062133655 0.010971831 -0.042449158 0.009647071
0.013727691 0.041945647 0.052297663 0.06684173 0.017721111 0.0738172 0.07571439 0.0024009328
0.02895241 0.051613715 -0.012750511 0.06793505 0.029497413 -0.08558913 0.057005096 -0.06421682
-0.06124304 0.028691886 -0.06520259 -0.07736864 0.014193809 0.039715704 0.07066024 -0.042643048
-0.08574877 0.0044711786 -0.039007947 0.06369754 -0.06065536 -0.04044679 0.085697785 -0.07789742
0.07360361 -0.024528617 -0.07659151 -0.04085274 -0.1022329 -0.04895839 -0.09662981 0.01368836
0.071854405 -0.10261574 0.032130875 -0.03406751 0.04972062 0.032884724 -0.055530988 -0.053135067
0.009916676 -0.013200489 -0.09932429 0.00478649 -0.043352105 0.023166785 -0.031631663 0.031626727
0.075637095 0.06109902 -0.100236766 0.038772043 -0.07230903 -0.0166738 -0.057021115 -0.003145275
0.04590926 0.007652318 -0.044380154 -0.025352718 -0.013942202 -0.048773643 -0.048602864 -0.056168493
0.01664047 0.037803676 -0.06859519 0.04615503 0.06807675 0.004398803 -0.026589092 0.019458
0.10095589 0.0035691138 0.097447336 0.07195848 0.008293789 0.01403753 -0.058462102 -0.057082847
0.06592636 -0.04707739 -0.0766385 -0.048631694 0.0023164782 0.048006766 -0.013624067 -0.1006283
-0.058573253 0.014108831 -0.004870577 0.05378555 -0.05151736 0.08624561 0.030762691 -0.007636694
-0.059715282 -0.06844327 0.0014167996 -0.027566945 -0.019354278 -0.0496979 -0.07657039 0.04035261
-0.009294466 -0.009598632 0.060879283 -0.10670558 -0.087435514 0.034932047 -0.03475486 -0.06111345
0.0714936 0.038447168 0.028113386 0.029405935 -0.059864994 0.060986415 0.008889724 -0.09980011
0.107297204 0.018649755 -0.039067585 0.027780281 -0.043254767 0.04141351 0.0032382568 0.035185207
0.046760935 0.02227786 -0.0852182 0.02610343 -0.012104853 -0.06699261 -0.05406731 -0.10206714
-0.033988614 -0.02803844 -0.10184866 -0.07118566 -0.090325646 -0.003089078 0.05212128 0.010788378
0.03233235 0.11149669 -0.056729246 0.024843795 -0.1039258 -0.03201136 -0.03977108 -0.030893028
0.08001508 -0.03466957 -0.09623112 0.037681162 -0.030067595 -0.06804933 -0.07819201 0.027805293
0.036920022 -0.013386611 -0.02651141 0.013541018 0.025474342 -0.028662873 -0.01055718 -0.09101696
0.0061431006 -0.09901839 0.013872339 0.01965355 -0.03137672 -0.1098464 0.041074693 0.035920955
0.024586398 0.031806465 0.021455297 0.010374259 -0.0794786 0.07208542 -0.072834656 0.031249221
-0.06672259 0.05596798 -0.03913667 -0.062482722 -0.026219798 -0.004827372 -0.011645932 0.12166863
-0.058524188 -0.018398525 0.012951492 0.07068487 -0.060982585 0.10241077 -0.08949118 0.07285635
-0.09073275 0.041797765 -0.055853404 0.07985019 0.06736141 -0.009319631 -0.055445462 0.016945818
00000000: b395 8b3c 6c9c e33b b55e a5bd 419d 3a3b
00000010: fee6 383d 5c66 5cba 322a 623c e7c2 35bd
00000020: 653b 2cbd 798d 92bb 0e4c b8bc a46b 69bc
00000030: 87eb 843d b00b 05bc 3718 063d c0e3 45bd
00000040: b658 6d3d 297f 993d 277c 453d 76e1 5bbc
00000050: aedf 06bd 43b6 03bc 0ae0 16bd 0d85 023d
00000060: 2c95 81bd ba8f 9f3d baf0 773d eb44 87bd
00000070: a585 a03d e550 ab3d 7ff9 9c3c 0408 933d
00000080: 7aa5 0a3d 0641 aabd 0733 cd3b 09c8 b03d
00000090: dc7f 7ebd 32c3 333c 2bdf 2dbd c00e 1e3c
000000a0: 1cea 603c 33cf 2b3d 1336 563d 51e4 883d
000000b0: dd2b 913c 792d 973d 2510 9b3d f858 1d3b
000000c0: 9b2d ed3c e768 533d 85e7 50bc 8821 8b3d
000000d0: 8fa4 f13c 5b49 afbd 2d7e 693d 1c84 83bd
000000e0: fbd9 7abd 3f0b eb3c ef88 85bd 7373 9ebd
000000f0: 268d 683c efac 223d 51b6 903d 7aaa 2ebd
00000100: 0d9d afbd f782 923b ccc6 1fbd db73 823d
00000110: c171 78bd 89ab 25bd 5282 af3d af88 9fbd
00000120: 7dbd 963d 3df0 c8bc 02dc 9cbd 3455 27bd
00000130: 7c5f d1bd 9888 48bd dae5 c5bd 2545 603c
00000140: 6728 933d 3328 d2bd aa9b 033d 608a 0bbd
00000150: d9a7 4b3d 22b2 063d 7674 63bd 28a4 59bd
00000160: 8e79 223c dd46 58bc 896a cbbd fdd7 9c3b
00000170: fa91 31bd 45c8 bd3c 3490 01bd 078b 013d
00000180: 9fe7 9a3d f742 7a3d ef48 cdbd 6fcf 1e3d
00000190: c216 94bd 7e97 88bc f98e 69bd f520 4ebb
000001a0: 590b 3c3d 4cc0 fa3b f7c7 35bd 81b0 cfbc
000001b0: d56d 64bc dfc6 47bd cc13 47bd ef10 66bd
000001c0: 9851 883c 07d8 1a3d a37b 8cbd 0f0d 3d3d
000001d0: d36b 8b3d d623 903b 5ed1 d9bc 6266 9f3c
000001e0: f6c1 ce3d cbe7 693b 7892 c73d f85e 933d
000001f0: ace2 073c abfd 653c f575 6fbd b4cf 69bd
00000200: 6604 873d 39d4 40bd a5f4 9cbd 0732 47bd
00000210: 0ed0 173b bea2 443d 7b37 5fbc 3616 cebd
00000220: 82ea 6fbd ba28 673c 5c99 9fbb 3d4e 5c3d
00000230: de03 53bd 8aa1 b03d 0a02 fc3c 3b3d fabb
00000240: 0398 74bd fc2b 8cbd e8b3 b93a 13d4 e1bc
00000250: dd8c 9ebc 0690 4bbd f0d0 9cbd c748 253d
00000260: d147 18bc 9543 1dbc 8e5c 793d 7588 dabd
00000270: 6411 b3bd e814 0f3d 1d5b 0ebd 1952 7abd
00000280: 3d6b 923d c77a 1d3d 0b4e e63c b7e4 f03c
00000290: ff34 75bd e4cc 793d 34a6 113c 0064 ccbd
000002a0: a3be db3d 5fc7 983c 5505 20bd 7993 e33c
000002b0: e92b 31bd 36a1 293d ef38 543b 5d1e 103d
000002c0: 6588 3f3d 0f80 b63c e186 aebd dcd6 d53c
000002d0: 6f53 46bc 6c33 89bd af75 5dbd 9408 d1bd
000002e0: a537 0bbd dfb0 e5bc 0896 d0bd cac9 91bd
000002f0: a7fc b8bd 2172 4abb 207d 553d bdc1 303c
00000300: ed6e 043d 6058 e43d ed5c 68bd 3785 cb3c
00000310: 0dd7 d4bd 581e 03bd 00e7 22bd 6013 fdbc
00000320: f2de a33d ae01 0ebd d214 c5bd 9057 1a3d
00000330: 5150 f6bc 725d 8bbd 2223 a0bd edc7 e33c
00000340: 7339 173d 8453 5bbc 752e d9bc 25db 5d3c
00000350: 91af d03c 67ce eabc 06f8 2cbc 1a67 babd
00000360: 104c c93b 27ca cabd cf48 633c 7b00 a13c
00000370: e084 00bd 26f7 e0bd f03d 283d da21 133d
00000380: 6a69 c93c 7f47 023d 05c3 af3c ccf8 293c
00000390: adc5 a2bd 85a1 933d 562a 95bd 5efe ff3c
000003a0: daa5 88bd ae3e 653d c64d 20bd e2ed 7fbd
000003b0: e7ca d6bc ee2e 9ebb 94ce 3ebc 672d f93d
000003c0: 0fb7 6fbd 81b8 96bc 7f32 543c 3bc3 903d
000003d0: e0c8 79bd bdbc d13d 2747 b7bd b635 953d
000003e0: 18d2 b9bd 2234 2b3d 8ac6 64bd 7f88 a33d
000003f0: c7f4 893d 5eb1 18bc c81a 63bd f5d1 8a3c

bias f4 [84]
-0.0004994626 0.03944057 0.119937435 0.18097761 0.17716448 0.4825572 -0.026336143 -0.081831105
0.01596374 0.025482986 0.053523578 -0.12636484 -0.08359826 0.14868994 0.24458721 0.22068039
-0.003434047 0.09393823 0.055260163 -0.037158202 0.20849185 0.14683026 -0.023054289 0.2077169
0.2291523 0.087821186 0.24301037 -0.11924376 -0.05134618 -0.03278587 0.27910745 -0.076086104
0.060486298 0.13130881 -0.045287944 -0.022402778 0.05489155 0.0758272 0.30990946 -0.0014595676
0.06351504 0.070364706 0.05660561 -0.028111907 -0.1544357 -0.1805823 -0.10399426 -0.004916622
0.13884437 0.037747897 0.34866565 -0.009809216 -0.037854053 -0.003925861 0.0331224 0.036576685
0.09198947 0.07708244 -0.08255895 0.03619126 0.02366432 -0.061014254 -0.029052526 0.023443159
-0.18539768 0.29526505 0.15124938 -0.011080548 -0.032441113 0.07141633 -0.070795335 -0.0440404
0.22850175 0.09464996 -0.012614152 -0.039418798 -0.05548907 -0.031927925 -0.049628742 -0.08293437
-0.06551069 -0.094330646 -0.035364155 -0.007838753
00000000: 5eee 02ba 6f8c 213d c2a1 f53d 3252 393e
00000010: 9b6a 353e bd11 f73e e5be d7bc 1197 a7bd
00000020: 64c6 823c b2c1 d03c 8a3b 5b3d c965 01be
00000030: 9135 abbd 2d42 183e 1275 7a3e 0afa 613e
00000040: c00d 61bb b062 c03d 7b58 623d 3333 18bd
00000050: e37e 553e ac5a 163e 59dc bcbc bdb3 543e
00000060: e7a6 6a3e 98db b33d b6d7 783e 1336 f4bd
00000070: 5f50 52bd 7a4a 06bd 2ce7 8e3e 08d3 9bbd
00000080: 7bc0 773d d175 063e da7f 39bd 0886 b7bc
00000090: f6d5 603d 4b4b 9b3d 74ac 9e3e f64e bfba
000000a0: 2c14 823d 5f1b 903d 49db 673d f14a e6bc
000000b0: 6424 1ebe 91ea 38be f1fa d4bd 9d1b a1bb
000000c0: 382d 0e3e 8a9d 1a3d 4e84 b23e d5b6 20bc
000000d0: da0c 1bbd 82a4 80bb 5bab 073d 6fd1 153d
000000e0: fa64 bc3d 66dd 9d3d ab14 a9bd 493d 143d
000000f0: addb c13c 15ea 79bd 90ff edbc de0b c03c
00000100: e4d8 3dbe fb2c 973e 1ee1 1a3e 308b 35bc
00000110: f9e0 04bd ba42 923d 25fd 90bd b563 34bd
00000120: 5dfc 693e d7d7 c13d 97ab 4ebc 9b75 21bd
00000130: 8248 63bd dbc6 02bd 8247 4bbd 7fd9 a9bd
00000140: 782a 86bd 6d30 c1bd 01da 10bd 1d6e 00bc

weight f4 [10, 84]
-0.090457425 0.089968175 -0.00070570124 -0.17303602 -0.18753879 0.14173725 -0.05853085 -0.13573706
-0.09827599 0.19273731 -0.1823826 0.07619546 -0.0029560074 0.21905619 0.02521828 0.19039896
-0.14675875 -0.10034077 0.055711675 0.024856715 -0.04934511 -0.093233414 0.12025201 0.28042132
-0.00026150525 -0.13497078 0.008291696 -0.24158329 0.24093698 0.12470766 0.12291903 0.0348304
0.30180168 0.065589316 -0.12571472 -0.11893211 -0.1060488 0.28769287 -0.48693985 0.1699652
0.15390268 0.10559604 0.008557028 0.06780277 -0.0051224777 -0.0907612 0.02492168 -0.08244688
0.09791297 0.10562865 -0.06554105 0.038326725 0.0022543438 -0.026212892 0.09775313 0.037306625
0.1673257 -0.0014596411 -0.0038897062 0.0666279 -0.056717712 0.08164746 -0.037237372 -0.14964348
0.017414158 -0.07955366 -0.1624845 0.043806788 -0.035740394 0.13839646 0.25187212 0.021510784
-0.11531261 0.084261484 -0.0077348286 -0.08028856 -0.06845573 0.035719465 -0.095294565 0.00064738514
0.15005979 -0.038585562 -0.028641937 0.16521987 0.008969213 0.1831569 -0.081769876 -0.0631258
-0.36458752 -0.19150716 -0.10375249 0.06272708 -0.10801382 0.096986525 -0.16122296 0.01168705
-0.028514756 -0.1149382 -0.26890466 -0.075616255 -0.10568722 -0.10430889 0.12500978 -0.048103664
-0.019099182 0.014266205 -0.089647345 0.0422497 -0.23942831 -0.23816231 -0.08488925 0.08734901
0.14955924 0.1420904 0.026472379 0.042367257 -0.06347062 0.13686867 -0.022657216 0.020490902
-0.017933438 0.063699484 -0.06124483 0.2400372 -0.08222772 -0.01901278 -0.09184682 0.0525655
0.35926774 0.15538976 0.07915209 -0.0018431995 -0.05067761 0.3037705 -0.29496273 0.015604316
0.026979245 0.04901965 0.18946399 -0.13062751 0.013391259 -0.048297796 0.06740238 0.08087287
0.1340745 0.09984621 -0.02638177 0.023594879 0.48128575 -0.21391997 -0.08904005 -0.056736294
0.021263802 0.1139621 -0.11395976 0.026980655 -0.04064253 -0.01937222 0.12691304 0.0032540867
-0.033902314 0.031150892 -0.056092206 -0.009906734 0.31934857 -0.021167312 0.0022070794 -0.06271234
0.082280576 -0.04103569 0.096364774 0.15453741 0.16650134 0.22899178 0.0014066845 -0.06312036
0.074455425 0.06981755 -0.09935493 0.046609346 -0.022753209 0.30275044 0.3068285 0.06795251
-0.11015204 0.2168533 0.079992905 0.23319563 -0.062238224 -0.19810598 -0.00452861 -0.016682535
-0.058866125 0.033432327 0.21151477 0.07938601 -0.086331815 -0.14769651 0.17558438 0.036199708
-0.03179249 -0.1838544 0.01565193 0.10207685 -0.07152979 0.083304144 0.1964915 0.07668305
0.20891812 -0.018136514 -0.00852032 -0.09155865 -0.15514322 -0.08222975 -0.19305652 -0.04428986
-0.12592785 -0.062962785 0.27513373 -0.0894374 0.13533361 -0.27971774 0.024150679 -0.14383428
-0.037596606 0.060513597 0.07096638 0.11271733 -0.10541565 -0.0961156 -0.07724504 0.04741586
-0.11819277 -0.014417698 -0.04226001 0.12962049 0.0122136865 0.023723586 0.16478297 -0.0058007217
0.05593796 -0.19361927 -0.04768344 0.090936534 -0.009852786 0.063393876 0.079784974 -0.08259111
-0.114281975 0.23593684 0.044705696 -0.10415459 -0.022041418 -0.112696335 0.00640162 0.11208762
00000000: be41 b9bd 3c41 b83d cffe 38ba 5b30 31be
00000010: 2b0a 40be 9223 113e 0bbe 6fbd a8fe 0abe
00000020: ec44 c9bd ee5c 453e 81c2 3abe 5e0c 9c3d
00000030: 93b9 41bb 4450 603e 9196 ce3c f2f7 423e
00000040: ed47 16be 767f cdbd ed31 643d 4fa0 cb3c
00000050: 191e 4abd 29f1 bebd b046 f63d 6293 8f3e
00000060: a41a 89b9 c835 0abe e5d9 073c 9c61 77be
00000070: 2fb8 763e bb66 ff3d f9bc fb3d 52aa 0e3d
00000080: c085 9a3e b153 863d 5cbb 00be ae92 f3bd
00000090: 1d30 d9bd 7b4c 933e 2e50 f9be 5b0b 2e3e
000000a0: aa98 1d3e bd42 d83d c732 0c3c 2edc 8a3d
000000b0: 75da a7bb 02e1 b9bd 8d28 cc3c e9d9 a8bd
000000c0: 9886 c83d d553 d83d 633a 86bd 7cfc 1c3d
000000d0: 9dbd 133b 6bbc d6bc cb32 c83d d5ce 183d
000000e0: 6e57 2b3e 6e51 bfba 71ea 7ebb 3574 883d
000000f0: d550 68bd c936 a73d 3786 18bd 243c 19be
00000100: 23a8 8e3c 07ed a2bd 5662 26be bf6e 333d
00000110: 8564 12bd cdb7 0d3e 62f5 803e 6237 b03c
00000120: 0529 ecbd 4991 ac3d 7274 fdbb 546e a4bd
00000130: 8532 8cbd 934e 123d cc29 c3bd 48b5 293a
00000140: 46a9 193e e50b 1ebd 7fa2 eabc 662f 293e
00000150: 9bf3 123c 7b8d 3b3e f776 a7bd 1948 81bd
00000160: 37ab babe 741a 44be 2f7c d4bd 0e77 803d
00000170: 5a36 ddbd dfa0 c63d a217 25be 0a7b 3f3c
00000180: c797 e9bc b864 ebbd dfad 89be b2dc 9abd
00000190: 8b72 d8bd e69f d5bd 9002 003e 5908 45bd
000001a0: e375 9cbc cdbc 693c 0799 b7bd 050e 2d3d
000001b0: b22c 75be d2e0 73be 6ada adbd 0ae4 b23d
000001c0: 0f26 193e 2580 113e 9adc d83c 4a89 2d3d
000001d0: e2fc 81bd 4d27 0c3e a09b b9bc 89dc a73c
000001e0: 25e9 92bc e074 823d dcdb 7abd 50cc 753e
000001f0: 0267 a8bd b1c0 9bbc 301a bcbd ec4e 573d
00000200: f1f1 b73e 7e1e 1f3e 7e1a a23d 8397 f1ba
00000210: 5393 4fbd cf87 9b3e 5b05 97be 3fa9 7f3c
00000220: 9403 dd3c d4c8 483d d902 423e 38c3 05be
00000230: 0367 5b3c e9d3 45bd 420a 8a3d ada0 a53d
00000240: d34a 093e 2b7c cc3d 951e d8bc 0c4a c13c
00000250: 166b f63e d60d 5bbe a15a b6bd 5164 68bd
00000260: 6d31 ae3c f664 e93d bc63 e9bd 8906 dd3c
00000270: c878 26bd 7db2 9ebc 7ef5 013e 8442 553b
00000280: 27dd 0abd 2830 ff3c f1c0 65bd db4f 22bc
00000290: a881 a33e 1267 adbc a6a4 103b 546f 80bd
000002a0: b882 a83d 0a15 28bd e55a c53d 0e3f 1e3e
000002b0: 547f 2a3e d27c 6a3e 8060 b83a 3f45 81bd
000002c0: 167c 983d 81fc 8e3d 997a cbbd 71e9 3e3d
000002d0: f064 babc 1b02 9b3e a018 9d3e b02a 8b3d
000002e0: 6597 e1bd cb0e 5e3e 52d3 a33d d6ca 6e3e
000002f0: 82ed 7ebd 4bdc 4abe bc64 94bb d0a9 88bc
00000300: 9b1d 71bd 56f0 083d 5497 583e 2295 a23d
00000310: bcce b0bd c13d 17be 64cc 333e 2546 143d
00000320: d838 02bd 5444 3cbe 7a38 803c ab0d d13d
00000330: 367e 92bd 5d9b aa3d 1135 493e 010c 9d3d
00000340: a2ee 553e 0793 94bc d098 0bbc 1a83 bbbd
00000350: dddd 1ebe 1268 a8bd 9cb0 45be 4969 35bd
00000360: 3bf3 00be a2f2 80bd 54de 8c3e f52a b7bd
00000370: e594 0a3e 2a37 8fbe a5d7 c53c 4b49 13be
00000380: e6fe 19bd 1bdd 773d d256 913d 58d8 e63d
00000390: 29e4 d7bd 41d8 c4bd a632 9ebd 2237 423d
000003a0: 0d0f f2bd 3538 6cbc d518 2dbd 3cbb 043e
000003b0: ea1b 483c f757 c23c debc 283e fb13 bebb
000003c0: 341f 653d 2144 46be b64f 43bd ef3c ba3d
000003d0: 946d 21bc a6d4 813d 4e66 a33d 8725 a9bd
000003e0: ab0c eabd 6d99 713e 521d 373d 004f d5bd
000003f0: 3490 b4bc 56cd e6bd aec4 d13b 328e e53d

bias f4 [10]
-0.1263906 -0.67903244 0.15386653 0.32466742 0.6758347 -0.08103192 0.18860398 -0.3396807
0.39635333 -0.45173284
00000000: 8a6c 01be 12d5 2dbf 308f 1d3e cf3a a63e
00000010: 8103 2d3f 10f4 a5bd 6721 413e a1ea adbe
00000020: d3ee ca3e 8749 e7be
